…
getting data from following folders:  ['../MolNet-data/control/fold_2', '../MolNet-data/control/fold_3', '../MolNet-data/control/fold_4', '../MolNet-data/control/fold_5', '../MolNet-data/nucleotide/fold_2', '../MolNet-data/nucleotide/fold_3', '../MolNet-data/nucleotide/fold_4', '../MolNet-data/nucleotide/fold_5']
folder classes:  [0, 0, 0, 0, 1, 1, 1, 1]
lengths of the folders:  [389, 389, 389, 389, 311, 311, 310, 310]
--------------------------------------------------------
generating validation dataset...
folds:  [1]
class name to integer map:  {'control': 0, 'nucleotide': 1}
getting data from following folders:  ['../MolNet-data/control/fold_1', '../MolNet-data/nucleotide/fold_1']
folder classes:  [0, 1]
lengths of the folders:  [390, 311]
model architecture:
Net(
  (conv1): GINConv(nn=Sequential(
    (0): Linear(in_features=3, out_features=32, bias=True)
    (1): LeakyReLU(negative_slope=0.01)
    (2): Linear(in_features=32, out_features=32, bias=True)
  ))
  (bn1): BatchNorm1d(32, eps=1e-05, momentum=0.1, affine=True, track_running_stats=True)
  (conv2): GINConv(nn=Sequential(
    (0): Linear(in_features=32, out_features=32, bias=True)
    (1): LeakyReLU(negative_slope=0.01)
    (2): Linear(in_features=32, out_features=32, bias=True)
  ))
  (bn2): BatchNorm1d(32, eps=1e-05, momentum=0.1, affine=True, track_running_stats=True)
  (conv3): GINConv(nn=Sequential(
    (0): Linear(in_features=32, out_features=32, bias=True)
    (1): LeakyReLU(negative_slope=0.01)
    (2): Linear(in_features=32, out_features=32, bias=True)
  ))
  (bn3): BatchNorm1d(32, eps=1e-05, momentum=0.1, affine=True, track_running_stats=True)
  (fc1): Linear(in_features=32, out_features=32, bias=True)
  (fc2): Linear(in_features=32, out_features=2, bias=True)
)
optimizer:
Adam (
Parameter Group 0
    amsgrad: False
    betas: (0.9, 0.999)
    eps: 1e-08
    lr: 0.001
    weight_decay: 0.0003
)
begin training...
Epoch: 001, Train Loss: 1.9030501, Train Acc: 0.6268763, Val Loss: 0.5987097, Val Acc: 0.7047076
Epoch: 002, Train Loss: 0.6267304, Train Acc: 0.6586848, Val Loss: 0.5555400, Val Acc: 0.7318117
Epoch: 003, Train Loss: 0.5849058, Train Acc: 0.6872766, Val Loss: 0.5547865, Val Acc: 0.7246790
…
