…
class name to integer map:  {'control': 0, 'nucleotide': 1}
getting data from following folders:  ['../MolNet-data/pockets/control/fold_1', '../MolNet-data/pockets/nucleotide/fold_1']
getting pops from following folders:  ['../MolNet-data/pops/control/fold_1', '../MolNet-data/pops/nucleotide/fold_1']
getting profiles from following folders:  ['../MolNet-data/profiles/control/fold_1', '../MolNet-data/profiles/nucleotide/fold_1']
folder classes:  [0, 1]
lengths of the folders:  [390, 311]
--------------------------------------------------------
model architecture:
Net(
  (conv1): GINConv(nn=Sequential(
    (0): Linear(in_features=6, out_features=16, bias=True)
    (1): LeakyReLU(negative_slope=0.01)
    (2): Linear(in_features=16, out_features=16, bias=True)
  ))
  (bn1): BatchNorm1d(16, eps=1e-05, momentum=0.1, affine=True, track_running_stats=True)
  (conv2): GINConv(nn=Sequential(
    (0): Linear(in_features=16, out_features=16, bias=True)
    (1): LeakyReLU(negative_slope=0.01)
    (2): Linear(in_features=16, out_features=16, bias=True)
  ))
  (bn2): BatchNorm1d(16, eps=1e-05, momentum=0.1, affine=True, track_running_stats=True)
  (conv3): GINConv(nn=Sequential(
    (0): Linear(in_features=16, out_features=16, bias=True)
    (1): LeakyReLU(negative_slope=0.01)
    (2): Linear(in_features=16, out_features=16, bias=True)
  ))
  (bn3): BatchNorm1d(16, eps=1e-05, momentum=0.1, affine=True, track_running_stats=True)
  (conv4): GINConv(nn=Sequential(
    (0): Linear(in_features=16, out_features=16, bias=True)
    (1): LeakyReLU(negative_slope=0.01)
    (2): Linear(in_features=16, out_features=16, bias=True)
  ))
  (bn4): BatchNorm1d(16, eps=1e-05, momentum=0.1, affine=True, track_running_stats=True)
  (fc1): Linear(in_features=16, out_features=16, bias=True)
  (fc2): Linear(in_features=16, out_features=2, bias=True)
)
optimizer:
Adam (
Parameter Group 0
    amsgrad: False
    betas: (0.9, 0.999)
    eps: 1e-08
    lr: 0.001
    weight_decay: 0.0001
)
begin training...
epoch:  1
train:  {'acc': 0.6315225160829163, 'precision': 0.5768390386016023, 'recall': 0.6376811594202898, 'f1': 0.605736137667304, 'mcc': 0.2626637136850472, 'loss': 2.846496111244027}
validation:  {'acc': 0.7146932952924394, 'precision': 0.6697247706422018, 'recall': 0.7041800643086816, 'f1': 0.6865203761755485, 'mcc': 0.42549258345909097, 'loss': 0.7794061676411758}
…
