…
class name to integer map:  {'control': 0, 'nucleotide': 1}
getting data from following folders:  ['../MolNet-data/pockets/control/fold_1', '../MolNet-data/pockets/nucleotide/fold_1']
getting pops from following folders:  ['../MolNet-data/pops/control/fold_1', '../MolNet-data/pops/nucleotide/fold_1']
getting profiles from following folders:  ['../MolNet-data/profiles/control/fold_1', '../MolNet-data/profiles/nucleotide/fold_1']
folder classes:  [0, 1]
lengths of the folders:  [390, 311]
--------------------------------------------------------
model architecture:
Net(
  (conv1): GINConv(nn=Sequential(
    (0): Linear(in_features=6, out_features=16, bias=True)
    (1): LeakyReLU(negative_slope=0.01)
    (2): Linear(in_features=16, out_features=16, bias=True)
  ))
  (bn1): BatchNorm1d(16, eps=1e-05, momentum=0.1, affine=True, track_running_stats=True)
  (conv2): GINConv(nn=Sequential(
    (0): Linear(in_features=16, out_features=16, bias=True)
    (1): LeakyReLU(negative_slope=0.01)
    (2): Linear(in_features=16, out_features=16, bias=True)
  ))
  (bn2): BatchNorm1d(16, eps=1e-05, momentum=0.1, affine=True, track_running_stats=True)
  (conv3): GINConv(nn=Sequential(
    (0): Linear(in_features=16, out_features=16, bias=True)
    (1): LeakyReLU(negative_slope=0.01)
    (2): Linear(in_features=16, out_features=16, bias=True)
  ))
  (bn3): BatchNorm1d(16, eps=1e-05, momentum=0.1, affine=True, track_running_stats=True)
  (conv4): GINConv(nn=Sequential(
    (0): Linear(in_features=16, out_features=16, bias=True)
    (1): ReLU()
    (2): Linear(in_features=16, out_features=16, bias=True)
  ))
  (bn4): BatchNorm1d(16, eps=1e-05, momentum=0.1, affine=True, track_running_stats=True)
  (fc1): Linear(in_features=16, out_features=16, bias=True)
  (fc2): Linear(in_features=16, out_features=2, bias=True)
)
optimizer:
Adam (
Parameter Group 0
    amsgrad: False
    betas: (0.9, 0.999)
    eps: 1e-08
    lr: 0.001
    weight_decay: 0.0001
)
begin training...
Epoch: 001, Train Loss: 1.6126129, Train Acc: 0.6122230, Val Loss: 0.7188571, Val Acc: 0.7104137
Epoch: 002, Train Loss: 0.6097160, Train Acc: 0.6744103, Val Loss: 0.6036620, Val Acc: 0.7061341
Epoch: 003, Train Loss: 0.5849001, Train Acc: 0.6876340, Val Loss: 0.7582709, Val Acc: 0.6476462
…
