…
class name to integer map:  {'control': 0, 'nucleotide': 1}
getting data from following folders:  ['../MolNet-data/pockets/control/fold_1', '../MolNet-data/pockets/nucleotide/fold_1']
getting pops from following folders:  ['../MolNet-data/pops/control/fold_1', '../MolNet-data/pops/nucleotide/fold_1']
getting profiles from following folders:  ['../MolNet-data/profiles/control/fold_1', '../MolNet-data/profiles/nucleotide/fold_1']
folder classes:  [0, 1]
lengths of the folders:  [390, 311]
--------------------------------------------------------
model architecture:
Net(
  (conv1): GINConv(nn=Sequential(
    (0): Linear(in_features=6, out_features=16, bias=True)
    (1): LeakyReLU(negative_slope=0.01)
    (2): Linear(in_features=16, out_features=16, bias=True)
  ))
  (bn1): BatchNorm1d(16, eps=1e-05, momentum=0.1, affine=True, track_running_stats=True)
  (conv2): GINConv(nn=Sequential(
    (0): Linear(in_features=16, out_features=16, bias=True)
    (1): LeakyReLU(negative_slope=0.01)
    (2): Linear(in_features=16, out_features=16, bias=True)
  ))
  (bn2): BatchNorm1d(16, eps=1e-05, momentum=0.1, affine=True, track_running_stats=True)
  (conv3): GINConv(nn=Sequential(
    (0): Linear(in_features=16, out_features=16, bias=True)
    (1): LeakyReLU(negative_slope=0.01)
    (2): Linear(in_features=16, out_features=16, bias=True)
  ))
  (bn3): BatchNorm1d(16, eps=1e-05, momentum=0.1, affine=True, track_running_stats=True)
  (conv4): GINConv(nn=Sequential(
    (0): Linear(in_features=16, out_features=16, bias=True)
    (1): ReLU()
    (2): Linear(in_features=16, out_features=16, bias=True)
  ))
  (bn4): BatchNorm1d(16, eps=1e-05, momentum=0.1, affine=True, track_running_stats=True)
  (fc1): Linear(in_features=16, out_features=16, bias=True)
  (fc2): Linear(in_features=16, out_features=2, bias=True)
)
optimizer:
Adam (
Parameter Group 0
    amsgrad: False
    betas: (0.9, 0.999)
    eps: 1e-08
    lr: 0.001
    weight_decay: 0.0001
)
begin training...
epoch:  1
train:  {'acc': 0.6125804145818442, 'precision': 0.5622047244094488, 'recall': 0.5748792270531401, 'f1': 0.5684713375796179, 'mcc': 0.21710340349544077, 'loss': 1.646685745436605}
validation:  {'acc': 0.6590584878744651, 'precision': 0.5895522388059702, 'recall': 0.7620578778135049, 'f1': 0.6647966339410941, 'mcc': 0.34051729584435536, 'loss': 0.7487538398247473}
…
