…
class name to integer map:  {'control': 0, 'nucleotide': 1}
getting data from following folders:  ['../MolNet-data/pockets/control/fold_1', '../MolNet-data/pockets/nucleotide/fold_1']
getting pops from following folders:  ['../MolNet-data/pops/control/fold_1', '../MolNet-data/pops/nucleotide/fold_1']
getting profiles from following folders:  ['../MolNet-data/profiles/control/fold_1', '../MolNet-data/profiles/nucleotide/fold_1']
folder classes:  [0, 1]
lengths of the folders:  [390, 311]
--------------------------------------------------------
model architecture:
Net(
  (conv1): GINConv(nn=Sequential(
    (0): Linear(in_features=5, out_features=16, bias=True)
    (1): LeakyReLU(negative_slope=0.01)
    (2): Linear(in_features=16, out_features=16, bias=True)
  ))
  (bn1): BatchNorm1d(16, eps=1e-05, momentum=0.1, affine=True, track_running_stats=True)
  (conv2): GINConv(nn=Sequential(
    (0): Linear(in_features=16, out_features=16, bias=True)
    (1): LeakyReLU(negative_slope=0.01)
    (2): Linear(in_features=16, out_features=16, bias=True)
  ))
  (bn2): BatchNorm1d(16, eps=1e-05, momentum=0.1, affine=True, track_running_stats=True)
  (conv3): GINConv(nn=Sequential(
    (0): Linear(in_features=16, out_features=16, bias=True)
    (1): LeakyReLU(negative_slope=0.01)
    (2): Linear(in_features=16, out_features=16, bias=True)
  ))
  (bn3): BatchNorm1d(16, eps=1e-05, momentum=0.1, affine=True, track_running_stats=True)
  (conv4): GINConv(nn=Sequential(
    (0): Linear(in_features=16, out_features=16, bias=True)
    (1): ReLU()
    (2): Linear(in_features=16, out_features=16, bias=True)
  ))
  (bn4): BatchNorm1d(16, eps=1e-05, momentum=0.1, affine=True, track_running_stats=True)
  (fc1): Linear(in_features=16, out_features=16, bias=True)
  (fc2): Linear(in_features=16, out_features=2, bias=True)
)
optimizer:
Adam (
Parameter Group 0
    amsgrad: False
    betas: (0.9, 0.999)
    eps: 1e-08
    lr: 0.001
    weight_decay: 0.0001
)
begin training...
Epoch: 001, Train Loss: 1.6203665, Train Acc: 0.6061472, Val Loss: 1.0401785, Val Acc: 0.6533524
Epoch: 002, Train Loss: 0.6247360, Train Acc: 0.6497498, Val Loss: 0.5297695, Val Acc: 0.7717546
Epoch: 003, Train Loss: 0.6060854, Train Acc: 0.6786991, Val Loss: 0.5794277, Val Acc: 0.7246790
…
