…
folds:  [1]
class name to integer map:  {'control': 0, 'heme': 1}
getting data from following folders:  ['../MolNet-data/pockets/control/fold_1', '../MolNet-data/pockets/heme/fold_1']
getting pops from following folders:  ['../MolNet-data/pops/control/fold_1', '../MolNet-data/pops/heme/fold_1']
getting profiles from following folders:  ['../MolNet-data/profiles/control/fold_1', '../MolNet-data/profiles/heme/fold_1']
folder classes:  [0, 1]
lengths of the folders:  [390, 120]
--------------------------------------------------------
model architecture:
Net(
  (conv1): GINConv(nn=Sequential(
    (0): Linear(in_features=6, out_features=16, bias=True)
    (1): LeakyReLU(negative_slope=0.01)
    (2): Linear(in_features=16, out_features=16, bias=True)
  ))
  (bn1): BatchNorm1d(16, eps=1e-05, momentum=0.1, affine=True, track_running_stats=True)
  (conv2): GINConv(nn=Sequential(
    (0): Linear(in_features=16, out_features=16, bias=True)
    (1): LeakyReLU(negative_slope=0.01)
    (2): Linear(in_features=16, out_features=16, bias=True)
  ))
  (bn2): BatchNorm1d(16, eps=1e-05, momentum=0.1, affine=True, track_running_stats=True)
  (conv3): GINConv(nn=Sequential(
    (0): Linear(in_features=16, out_features=16, bias=True)
    (1): LeakyReLU(negative_slope=0.01)
    (2): Linear(in_features=16, out_features=16, bias=True)
  ))
  (bn3): BatchNorm1d(16, eps=1e-05, momentum=0.1, affine=True, track_running_stats=True)
  (conv4): GINConv(nn=Sequential(
    (0): Linear(in_features=16, out_features=16, bias=True)
    (1): LeakyReLU(negative_slope=0.01)
    (2): Linear(in_features=16, out_features=16, bias=True)
  ))
  (bn4): BatchNorm1d(16, eps=1e-05, momentum=0.1, affine=True, track_running_stats=True)
  (fc1): Linear(in_features=16, out_features=16, bias=True)
  (fc2): Linear(in_features=16, out_features=2, bias=True)
)
optimizer:
Adam (
Parameter Group 0
    amsgrad: False
    betas: (0.9, 0.999)
    eps: 1e-08
    lr: 0.001
    weight_decay: 0.0002
)
begin training...
epoch:  1
train:  {'acc': 0.6998031496062992, 'precision': 0.40771349862258954, 'recall': 0.6218487394957983, 'f1': 0.492512479201331, 'mcc': 0.3053622351363547, 'loss': 3.352454837382309}
validation:  {'acc': 0.792156862745098, 'precision': 0.5795454545454546, 'recall': 0.425, 'f1': 0.49038461538461536, 'mcc': 0.3706022022032037, 'loss': 1.5382510746226592}
…
